…
2021-01-26 20:36:23.263188: I tensorflow/compiler/xla/service/service.cc:176]   StreamExecutor device (0): Host, Default Version
loading model: ./SuperMarioBros-1-1-v0__Deep Q-Learning__SIMPLE_MOVEMENT_online.HDF5
Model 'online' summary:
Model: "functional_1"
_________________________________________________________________
Layer (type)                 Output Shape              Param #
=================================================================
input_1 (InputLayer)         [(None, 84, 84, 4)]       0
_________________________________________________________________
tf_op_layer_RealDiv (TensorF (None, 84, 84, 4)         0
_________________________________________________________________
conv2d (Conv2D)              (None, 20, 20, 32)        8224
_________________________________________________________________
conv2d_1 (Conv2D)            (None, 9, 9, 32)          16416
_________________________________________________________________
conv2d_2 (Conv2D)            (None, 7, 7, 32)          9248
_________________________________________________________________
flatten (Flatten)            (None, 1568)              0
_________________________________________________________________
dense (Dense)                (None, 128)               200832
_________________________________________________________________
dense_1 (Dense)              (None, 7)                 903
=================================================================
Total params: 235,623
Trainable params: 235,623
Non-trainable params: 0
_________________________________________________________________
Model 'target': same structure
Episode 5 - Frame 1738/11478333 - Frames/sec 26 - Time 67 | 67/440851 - Epsilon 0.9996 - Mean Reward 0.3569 - Mean X position 656 - Max X position 1238
Episode 10 - Frame 5416/18372727 - Frames/sec 27 - Time 134 | 201/1003296 - Epsilon 0.9986 - Mean Reward 0.2558 - Mean X position 871 - Max X position 1415
…
